car/netparm.pkl (torch_old, 247522 bytes, 10 tensors)

conv1.weight f4 [6, 3, 5, 5]
000000 61 9e 50 bd f2 de 8e bd 6e dd 92 3d aa 1f 0b bd
       -0.050932292 -0.06976117 0.071711406 -0.033965744
000010 f7 17 9e 3d a0 d3 0d 3e 1f ea 6d be 3c f3 2c 3d
       0.07719415 0.1385026 -0.23233841 0.042224154
000020 55 f4 ad bd b2 86 e3 bd 35 bd 8f 3e 58 e2 23 be
       -0.08493868 -0.111096755 0.2807404 -0.16004312
000030 49 fe fc 3d 42 44 db bc f1 e3 73 3c 69 ec 0a 3e
       0.123531885 -0.026765946 0.014885888 0.13566746
000040 8c f2 6b be 99 80 07 be 6a 1c f9 bd 74 3b a2 be
       -0.23041743 -0.1323265 -0.12163623 -0.31685984
000050 87 6c d8 3d ab bf 6e be 4a 4c c5 bd 22 93 1a bd
       0.10567575 -0.23315303 -0.096336916 -0.037737973
000060 06 2b d3 bd 74 16 fe bd e5 de f6 bd 6a d9 68 3d
       -0.103109404 -0.12406626 -0.120542325 0.056847967
000070 85 a9 87 3d da f6 27 3e 7c 4b c4 bc 93 02 28 be
       0.0662413 0.1640276 -0.023961775 -0.16407232
000080 86 60 89 bd c9 14 7d bd 37 30 14 3d 85 e1 92 3e
       -0.067078635 -0.0617874 0.036178794 0.28687683
000090 23 d1 64 be 6b 50 b9 3d 92 52 c3 bb c9 19 80 bd
       -0.22345404 0.09048542 -0.005960771 -0.06254918
0000a0 73 38 f1 3d 66 74 b0 be 9f a7 28 bd bc 92 5d be
       0.11778345 -0.34463805 -0.04117548 -0.21638006
0000b0 6a e5 04 be 78 e3 ba 3c 94 01 91 be 6e d8 0b be
       -0.1297814 0.022813544 -0.28321517 -0.1365678
0000c0 1d 1f 91 bc fc b6 1e be 12 54 45 be 11 ad cd bd
       -0.017715031 -0.1549949 -0.19270352 -0.100427754
0000d0 9c cf c1 3d 01 d5 0a be 1b 5e b3 bd 28 da 2c bd
       0.094634265 -0.13557817 -0.087581836 -0.042200238
0000e0 86 f8 6b be 3a 1c 5e bd b6 cc d3 bd 23 92 81 bd
       -0.23044023 -0.054226138 -0.1034178 -0.063267015
0000f0 05 7f 29 3d 4c cf 3f 3d e7 9c 19 3e c8 32 1e be
       0.0413809 0.046828553 0.1500126 -0.15449059
000100 26 10 9f bc 8f bc 0a bd 27 b6 99 be fe 04 86 bd
       -0.01941688 -0.03387123 -0.30021784 -0.06543921
000110 79 ae 13 be 84 7a 01 bd 36 be 07 3e a2 c8 90 bc
       -0.14422025 -0.03161098 0.13256153 -0.017673794
000120 b5 90 95 3d c8 21 88 bd 99 8c 95 3d 00 64 e3 3d
       0.07302991 -0.06647068 0.073022075 0.11103058
000130 f7 10 41 3d 1e 83 48 bd be 1f 1b 3e 43 b8 7e bb
       0.04713532 -0.048953168 0.15148827 -0.0038867153
000140 f3 a1 30 3d b5 14 77 be e4 bf 16 3a 78 4e 7e 3e
       0.043123197 -0.24128993 0.000575064 0.24834621
000150 07 4c 31 3e 8d ae ad 3d 2f f7 8f be 63 e3 8f 3d
       0.17314158 0.084805585 -0.28118274 0.070257924
000160 85 9c 52 3e d7 fc e3 3d a6 7e aa bd 41 eb b7 be
       0.2056752 0.1113221 -0.083249375 -0.35921672
000170 35 40 d5 3d 5e 7b 8a 3e fb 54 70 3e 4c 73 1e 3d
       0.10412637 0.27047247 0.23469917 0.038684174
000180 61 7f 11 be ea c9 f7 3d 8c 4e d2 3d 70 07 c1 3d
       -0.14208747 0.12099059 0.10268888 0.09425247
000190 b9 60 2c bd 88 d7 44 3d 0c 0f 08 3d 7d 32 95 3e
       -0.04208443 0.04805711 0.033217475 0.29140082
0001a0 8d 4c 13 3d 61 5d 8e 3e ff e7 68 be 53 96 bd 3c
       0.035961676 0.27805617 -0.2274475 0.02314297
0001b0 0e d4 42 3e 67 60 02 3e 51 64 0d bc 16 71 9a be
       0.19026205 0.12732087 -0.008629874 -0.30164403
0001c0 a0 93 5b 3d 07 14 3a 3e 4f 98 a7 bc e9 75 86 be
       0.053607583 0.18171702 -0.020458369 -0.26261833
0001d0 4c b9 d4 be ab 10 62 3e d8 d2 92 3e f1 aa 80 bd
       -0.4154762 0.22076671 0.28676486 -0.062826045
0001e0 f8 9b 87 bd a5 cc 5b be bd 82 78 3e 16 dd 7f 3e
       -0.066215456 -0.21464784 0.24268623 0.24986681
0001f0 d4 b8 aa 3d d0 7d 46 3c c8 30 5a 3d 9f 02 fa 3b
       0.083360344 0.012114957 0.053269178 0.007629707
000200 0a 14 8c 3e 5f a7 1a 3d cb 9f 50 3d 04 ca 29 be
       0.2735904 0.037757274 0.05093364 -0.16580969
000210 4e b7 21 bd 2d 30 54 3e e2 60 af bd f8 f9 0d be
       -0.039481454 0.20721503 -0.08563401 -0.13864887
000220 13 74 35 be 48 77 c1 3d a7 2e a6 3e 59 76 28 bd
       -0.1772006 0.09446579 0.32457468 -0.04112849
000230 06 e1 e1 be 76 9f 36 be 4f 91 8a 3e ce 5b 83 3e
       -0.44116992 -0.17834267 0.27063987 0.2565598
000240 63 04 43 bd c8 40 6d be 36 fa 81 bb 04 87 89 3e
       -0.047611605 -0.23169243 -0.003966595 0.2686082
000250 2a 73 a5 3d c8 70 7b 3d 17 3f 93 3d cf e9 63 be
       0.080786064 0.061386853 0.07189768 -0.2225716
000260 6d 54 c4 bd 17 8e b2 3d d2 43 0a 3d df 59 75 3d
       -0.095864154 0.08718508 0.033756085 0.05990016
000270 eb 03 61 bd 59 30 7f be f3 93 e3 bd 98 f7 fd bb
       -0.054935377 -0.24920787 -0.111122034 -0.0077504627
000280 21 b2 27 be 47 b5 ea 3e d0 17 b0 3e 31 a3 04 3e
       -0.16376545 0.4584143 0.34393167 0.12952878
000290 36 ff 15 3e e6 8b 26 be 26 49 8e be ae 93 25 be
       0.14648136 -0.16264305 -0.27790183 -0.16169617
0002a0 23 e4 f7 3d e0 95 08 be 8c 4e 36 be 73 9e 71 be
       0.121040605 -0.13338423 -0.17803401 -0.235956
0002b0 44 f8 2d 3e b4 45 29 bd 91 d8 25 3c ca ac ba 3d
       0.16989237 -0.04132624 0.010122434 0.09114988
0002c0 2d 45 0b be 8c 7f 1e be 6a cc e9 3c 7b 37 67 3d
       -0.13600607 -0.15478343 0.028539855 0.056449395
0002d0 1d 2f 22 be fb 0e 14 be 72 7d 06 be cc 36 ab bd
       -0.15838285 -0.1445884 -0.13133791 -0.08360061
0002e0 52 45 8e be a6 75 c4 bd d4 78 03 3f eb 14 39 3e
       -0.27787262 -0.09592752 0.51356244 0.18074386
0002f0 cb e5 95 3e 14 6c 3c 3e 66 38 8d bc 61 fa f9 bd
       0.2927688 0.18400604 -0.017238807 -0.12205959
000300 be b2 f6 bd 7b c8 0f 3e db 4a ce bd 0d ef 20 be
       -0.12045811 0.14041321 -0.10072871 -0.1571619
000310 a8 d5 9c be 32 04 b5 bd 39 91 83 be 86 b2 72 3c
       -0.30631757 -0.08838691 -0.25696734 0.014813071
000320 e1 09 c0 3b fc e9 8b bd d5 dc 4a bc 45 55 0b bc
       0.0058605527 -0.06831738 -0.012381752 -0.008504217
000330 ae 4a 5c 3e c3 89 0a be 23 5e 08 be 1c 3d a4 3c
       0.21512863 -0.13529114 -0.1331716 0.02004867
000340 5d 58 6a be 98 4e b0 be b3 0c 86 3e b0 82 f9 3e
       -0.2288527 -0.34434962 0.26181564 0.4873252
000350 ba ff 55 3e 51 08 91 3e bf d0 61 3e d2 66 15 3d
       0.20898333 0.28326657 0.22052287 0.03647501
000360 89 4b bc 3d ea a8 7f 3c b4 41 ab bd d0 c4 b2 bd
       0.09194095 0.015604237 -0.08362141 -0.08728945
000370 b7 5f 1e 3d 72 07 00 be 4f eb 36 bd 0f 73 8c be
       0.0386655 -0.1250284 -0.044658 -0.27431533
000380 2c 84 6c be 9f 09 39 3e be e5 2f 3d 11 c2 2d 3e
       -0.23097295 0.18070076 0.04294371 0.16968562
000390 0b dd 98 3e 92 8d 4f 3e 78 65 9a be aa 4b 95 3d
       0.29856142 0.20268849 -0.3015554 0.072898224
0003a0 31 9e b1 3d ef 14 9a 3d 21 b9 f1 3d 3f 89 13 be
       0.08672751 0.07523524 0.11802889 -0.14407824
0003b0 69 76 f9 3c 0f ee 0f 3d e6 0f 29 bd 8e b6 60 3d
       0.03045197 0.03513914 -0.041274928 0.054861598
0003c0 97 d6 fc bd 29 ef f4 bd 34 99 83 bd c5 2e 5e bd
       -0.12345617 -0.11959679 -0.064257056 -0.05424382
0003d0 1d 72 81 bd 4f 44 b7 3c ca 75 04 3e 16 0b 1e be
       -0.063205935 0.02237144 0.12935558 -0.15433916
0003e0 e0 58 8f bc 6e ac 94 3c ba 57 23 3e 62 f5 8a 3d
       -0.017498434 0.018148627 0.15951434 0.06785084
0003f0 fc 5d a3 3e f8 92 38 3e 0e c1 b0 3d cd 86 78 bd
       0.31907642 0.18024814 0.08630572 -0.06067543

conv1.bias f4 [6]
000000 3e 7c 07 bf f4 d9 d2 be 68 34 01 bf 2f 39 02 bf
       -0.52923954 -0.4118191 -0.5047059 -0.50868505
000010 8b 40 2a bf 03 7f 8a be
       -0.66504735 -0.27050027

conv2.weight f4 [16, 6, 5, 5]
000000 fd 13 53 bc be b1 6f ba 0c 45 3a bd e3 f6 2e bd
       -0.012883184 -0.0009143612 -0.045476004 -0.04271592
000010 64 36 3b bd 5d 47 c3 bd ac 1f 89 3c aa a1 5a bd
       -0.045706168 -0.09535096 0.016738735 -0.05337683
000020 c5 09 8d 3d 0d e6 ac 3c 83 ba 65 3d 88 97 d2 3c
       0.06886629 0.02110579 0.056086075 0.025707021
000030 22 f3 db bd 7d 27 1c bd 38 cc c3 bd 5f 23 10 be
       -0.10739733 -0.038123596 -0.09560436 -0.14075993
000040 e7 3d 92 bd 1c a7 cb bc 1e 5c 97 3d 84 e8 16 bd
       -0.07140713 -0.024859957 0.07390617 -0.036842838
000050 5a 5f e6 bd 34 0b a8 3d 3a 08 d5 3c ae 10 bb bd
       -0.112486556 0.08205262 0.0260049 -0.09134041
000060 52 60 99 3c 4f bb e9 3d cb 1f bb 3d af 75 31 bd
       0.018722687 0.114126794 0.091369234 -0.043325122
000070 a8 d3 d7 3c 88 9d 96 bd 66 79 1d bb af a5 38 3d
       0.026346043 -0.073542655 -0.0024028658 0.045079883
000080 f9 c3 ca 3c f2 8c f7 3d a9 04 aa 3c c8 04 92 bc
       0.02475165 0.1208743 0.020754175 -0.017824546
000090 7c 4b 9b bc 66 7c 8b 3b 90 ef d6 3a e9 bf b0 3d
       -0.018956892 0.004256773 0.00163983 0.08630354
0000a0 86 be a8 bc f5 bc a1 3d f1 3a 61 3d 8d dc f4 bd
       -0.020598661 0.07897369 0.05498785 -0.11956129
0000b0 5b 59 a6 bc b5 d8 09 3d ee 02 c2 bc 81 55 61 3d
       -0.02030628 0.033653934 -0.023683038 0.055013184
0000c0 f6 3b e0 bd f6 fd 00 3c a8 fc 9c bd 58 58 3b 3d
       -0.10948937 0.007873049 -0.07665378 0.045738548
0000d0 13 43 4d 3e 94 ae c4 3d e3 42 a6 3c 43 4e 1e be
       0.20045118 0.09603611 0.020295566 -0.15459542
0000e0 78 18 90 3d 9d 1e 5d 3c ff c3 31 bd cb 44 85 bd
       0.07035917 0.013496068 -0.043399807 -0.06507262
0000f0 9f 94 b0 bd 1c d2 38 bd 1c 92 29 bd e9 de 3e be
       -0.08622097 -0.04512225 -0.041399106 -0.18639721
000100 ef bf 2d bc f0 db 82 bd ca c0 45 3d fd 65 b1 bd
       -0.010604843 -0.06389606 0.04827956 -0.08662031
000110 7a c3 f8 bd d2 1d 26 3c 50 bc 11 3e 9d 90 0a be
       -0.12146659 0.010138946 0.14231992 -0.13531728
000120 35 c4 c8 3c 2b 8f 90 3d f6 64 c3 3c 4d 82 69 bd
       0.024507621 0.07058557 0.023851853 -0.05700903
000130 7c 90 8a bc 0c f6 b7 bb 86 17 96 3d ec 7b e1 bc
       -0.016914599 -0.005614048 0.073287055 -0.02752491
000140 10 e3 3f bd ff f7 68 3b 1e 29 08 3e 23 e6 05 bc
       -0.046847403 0.0035548208 0.13296935 -0.008172545
000150 8b a1 ea 3d 8d 64 ca bc f7 80 2c 3c 88 95 cf 3d
       0.11456593 -0.02470615 0.0105287945 0.10135943
000160 fc 0d 27 bd 0f 73 bd bd 2d 6d 37 3d c7 e7 af bd
       -0.04078482 -0.09250461 0.044781853 -0.0858913
000170 52 58 6a bb 7b 36 9a bd 44 6f 0d 3e 9a d7 7f bd
       -0.003575821 -0.075299226 0.13811976 -0.062461473
000180 60 16 ab 3a 89 77 c1 3d b0 c5 b4 bc 92 63 90 bc
       0.0013052933 0.09446628 -0.022066921 -0.017625604
000190 cd dd 55 bd ab a5 8b 3b ef 19 72 bd b4 78 fe bc
       -0.05221348 0.0042616925 -0.059106763 -0.031063415
0001a0 24 18 e4 bd 29 e0 57 3c 9d 11 1f be a6 73 43 3d
       -0.11137417 0.013176003 -0.15534063 0.047717713
0001b0 59 c5 52 3b 18 90 c0 3b ac 99 16 3c 69 43 3e be
       0.0032161085 0.0058765523 0.009191912 -0.18580402
0001c0 1d 18 d0 3c 3d af ea bd c1 84 9e b8 a2 4e cd 3d
       0.025402123 -0.11459205 -7.5587544e-05 0.10024764
0001d0 90 bd 64 bd 24 27 22 bd ee 45 b2 bd d4 3b 7e bd
       -0.055844843 -0.03958811 -0.08704744 -0.062068775
0001e0 75 b2 54 bd 43 32 12 3d eb 44 20 bd 77 65 80 3d
       -0.051928002 0.035692465 -0.039128225 0.06269353
0001f0 e2 8d 64 3d e5 10 33 bd 23 46 4a bc 9a e3 59 bc
       0.055799372 -0.043717284 -0.012345823 -0.013298893
000200 28 ff 80 3d 2d 7f aa bd 5e 38 ed bd 6c 94 e9 bc
       0.06298667 -0.08325038 -0.11583017 -0.028513156
000210 67 b3 47 bc da 3f c5 3d ef 7f ff bc da cf 66 3d
       -0.012188769 0.09631319 -0.031188933 0.056350566
000220 7b 4e 8c 3d ad 77 e0 bd 4b 46 d3 bd 44 a2 da bd
       0.068509065 -0.10960326 -0.10316142 -0.10675481
000230 c7 d6 40 bd 85 24 5e 3d 8b 97 0f bd 3f 7f f9 bd
       -0.047079828 0.054234046 -0.035056632 -0.121824734
000240 83 fe 8b bc f5 78 b7 bd 40 a0 10 bd ee 33 67 3c
       -0.017089134 -0.089586176 -0.035309076 0.014111502
000250 c0 6a d5 3c 3c 8c bb bd ca ab 6e bd cb 84 ce 3b
       0.026051879 -0.09157607 -0.0582693 0.0063024512
000260 51 83 8b bc 31 5e 8c bd f1 e5 2e 3c 3d a9 9e 3c
       -0.01703039 -0.06853903 0.0106749395 0.019367808
000270 85 9c 62 3d eb 4b c2 3c 9e f7 8e 3c 24 69 a0 3d
       0.05532505 0.023717841 0.017452057 0.07832554
000280 d2 00 95 bd 85 a5 e4 3c cf 9b 7a 3d d7 33 29 bd
       -0.07275547 0.027910957 0.061183747 -0.041309204
000290 a3 b1 9f bd 24 dd 02 bd f4 8d e6 bc 5f 97 3f 3d
       -0.077975534 -0.031949177 -0.02814386 0.046775218
0002a0 19 d3 82 bd 90 df c4 3c 47 07 c5 bc 04 8b 89 bd
       -0.0638792 0.024032384 -0.024051322 -0.06715968
0002b0 0a ae b3 3d a2 72 85 bd 43 3c 97 bd e0 f4 cc 3c
       0.0877343 -0.06516005 -0.07384541 0.02501911
0002c0 f3 f3 27 bd 08 9c 91 bc 38 82 17 bd f6 d6 b7 3d
       -0.041004132 -0.017774597 -0.03698942 0.089765474
0002d0 0d 90 55 3c 7b cd ae bc ff 81 6b 3c df 54 b2 3d
       0.013034833 -0.021338215 0.014374255 0.08707594
0002e0 76 6a 78 3d 3d ab a5 bd 40 8c 4a bd 73 f9 72 bd
       0.060648404 -0.08089302 -0.04945016 -0.059319925
0002f0 26 0f d7 3d 1c d3 b0 bd c6 58 b5 bd 33 a0 8d 3c
       0.10500936 -0.08634016 -0.08854823 0.017288303
000300 50 d2 62 3b 5a 09 32 bb 31 9a f9 bc 37 fe e1 bb
       0.003461022 -0.0027166218 -0.030469032 -0.00689676
000310 b3 8d 11 3b c8 8b 75 bd c6 c9 52 3d 38 91 0a bd
       0.0022209703 -0.05994776 0.051461957 -0.033829898
000320 3a f1 49 bd 7f 54 89 bd 58 23 2f 3c a7 03 76 3d
       -0.049302317 -0.067055695 0.010689579 0.060062077
000330 47 de 09 3c 91 de 0e bd f2 bd b0 bd d0 57 48 3d
       0.008414811 -0.034880225 -0.08629979 0.04891187
000340 52 fa a9 ba e1 ad f6 bc 3e f0 a1 ba 0f f0 f5 bc
       -0.0012968278 -0.030112209 -0.0012354923 -0.030021695
000350 c0 5f 63 3d 62 aa 30 bd c8 1e b6 bc 46 ba d9 bc
       0.055511236 -0.04313124 -0.022231475 -0.02657808
000360 51 61 be 3d dc be 65 bd 30 81 a6 3d 8a 7f 35 bd
       0.092959054 -0.05609022 0.08130109 -0.044311084
000370 cb b0 3d 3d 53 ae 4e bd 56 11 b7 bd 2d c0 96 bc
       0.04631118 -0.050459217 -0.089388534 -0.018402183
000380 d6 37 79 3c a3 6c 8a bd ba 6a 92 bd 0d 6f 63 3d
       0.015211066 -0.06759002 -0.07149263 0.05552583
000390 e9 24 a0 bd 02 7c 82 3c 08 25 98 bc 62 a7 f0 3c
       -0.0781954 0.015928272 -0.018572345 0.02937669
0003a0 8e db e1 bc b6 23 86 bd 30 0a 57 3b 95 56 4f bc
       -0.027570512 -0.0654978 0.0032812469 -0.01265492
0003b0 4b b8 70 bb c2 8b aa 3d 33 69 1b 3d 86 69 99 3d
       -0.003673094 0.08327438 0.037942123 0.0749083
0003c0 0e aa 6a 3d 11 03 e1 bc ab 45 e0 bc 9c d5 c1 bc
       0.057291083 -0.027467282 -0.02737697 -0.023661427
0003d0 a3 98 90 bd 0c 0d 41 3c 4c 1b 7b bd d6 a6 93 bc
       -0.07060363 0.011782896 -0.06130533 -0.01802389
0003e0 6e d8 6d bc 05 2a 4e bd 91 15 8c 3d 99 7d 02 bd
       -0.014516933 -0.05033304 0.06840051 -0.03185806
0003f0 d6 39 fd 3c 0b e6 e7 bc 5d 4d 44 3b 1e 39 a8 bc
       0.030911367 -0.028307935 0.0029953339 -0.020535048

conv2.bias f4 [16]
000000 4e ec b2 bd 27 f5 94 3d ed 0d 2b 3d 61 f5 87 bd
       -0.08736478 0.072733216 0.041761328 -0.06638599
000010 d7 c2 34 3d f1 4a ac 3d 36 77 b3 3d ca f3 63 bd
       0.044131126 0.084127314 0.08762972 -0.055652417
000020 f1 d5 89 bd ce 6f 19 bd 09 35 41 bd af df 56 3e
       -0.06730259 -0.03746014 -0.04716972 0.20983766
000030 26 f0 1b bc f6 ad ae 3d 8c b6 11 3e 2c cb d8 3c
       -0.009517705 0.08529274 0.14229792 0.026464067

fc1.weight f4 [120, 400]
000000 a9 05 20 bd 6b 34 e7 3d 47 bb 85 bc d3 e3 27 3d
       -0.039067898 0.11289295 -0.016324652 0.040988754
000010 5b cb 96 3c 3e 30 52 bc 6d 83 2e 3a 09 2a 86 bd
       0.018407514 -0.012828885 0.0006657157 -0.06550986
000020 7b b9 1b bd 34 df c5 bd 3b a2 df 3b d6 2e 3f 3c
       -0.038018685 -0.09661713 0.0068247593 0.011668881
000030 b8 4b 66 3b c1 cb 25 3d 68 0e 8a 3d e5 5a 50 3d
       0.0035140347 0.040477518 0.06741029 0.050867934
000040 14 c6 bd bc 5d 04 7f 3d 66 68 49 bd e5 e0 c2 bc
       -0.02316574 0.06226002 -0.049171828 -0.023788879
000050 e0 bd b5 3b 1f 19 9e bb 72 b6 56 3d 5e f2 d1 bb
       0.0055463165 -0.004824772 0.052420087 -0.0064070662
000060 3a 46 29 3c a2 bf 3c 3c bd c9 31 bd 85 0e 32 3b
       0.010331685 0.011520298 -0.043405283 0.00271693
000070 af ae a7 bb 5f f7 bf 3c 6e bd b4 bc 1c 2a 89 3c
       -0.0051172595 0.023433385 -0.022062983 0.016743712
000080 c6 61 50 3c f5 c1 13 3d 22 b8 10 bd ef fb 68 bd
       0.0127186235 0.036073644 -0.035331853 -0.056880888
000090 94 fc 05 3d 6d e4 18 bc 67 b6 0a bd 69 6f 29 bc
       0.03271158 -0.009331805 -0.03386536 -0.010341504
0000a0 90 af e6 3c e5 b9 91 ba 94 f1 1a bd 9c 0e bd bb
       0.028159887 -0.0011118023 -0.037828043 -0.005769564
0000b0 38 22 e7 3c 79 f3 17 3c bb 02 1e bc ab 78 f6 bc
       0.028214559 0.009274357 -0.009644206 -0.030086836
0000c0 e4 99 01 3b b1 6f 2a 3d d6 40 13 bd 50 92 55 3d
       0.0019775564 0.041610423 -0.035950504 0.052141488
0000d0 a9 a2 f0 bc 22 00 35 3c 26 77 2d bd d7 98 4f 3d
       -0.029374437 0.011047395 -0.042349957 0.05068287
0000e0 39 fe 4b 3c 22 12 b5 bc 6d 2a 59 3d db 7f be bc
       0.012450748 -0.022103373 0.053018976 -0.023254326
0000f0 48 22 86 3d d4 8c a7 3d 6b 56 eb bc 86 cf 57 3b
       0.065495074 0.08181158 -0.02872773 0.003293009
000100 2d 89 29 3d 30 40 f0 bc ed 61 b6 3d 59 4a 8e 3d
       0.041390587 -0.029327482 0.089053966 0.069477744
000110 a6 f0 00 3d b5 54 4e bc 4d 63 52 3d 01 d3 0b bd
       0.0314795 -0.012593438 0.05136423 -0.034136776
000120 38 97 fb b9 17 29 12 bd f0 cc 69 bd 62 f3 5d bc
       -0.00047987117 -0.035683718 -0.05708021 -0.0135467965
000130 00 99 6e 3c 75 b3 bc bd a2 b1 14 bd e1 b4 b7 3c
       0.014562845 -0.09213916 -0.036302216 0.022425117
000140 d3 e4 00 bd d3 bd 31 bc b3 e3 bf 3d d0 40 fb 3c
       -0.031468224 -0.01084848 0.09369602 0.030670553
000150 96 89 02 be 5c b6 46 3d ae 7a 61 bd cd f1 69 3d
       -0.12747797 0.048513755 -0.055048637 0.057115365
000160 b6 fa 3a 3d 1c ef 5b 3d c6 80 b7 bd e4 73 77 3d
       0.045649253 0.05369483 -0.089601085 0.060413256
000170 6e cb 30 3d 1e c4 ac bc d8 f7 82 3c 9d 28 1a 3d
       0.043162756 -0.02108961 0.015987322 0.037636388
000180 a1 3a a2 bd a7 b8 51 bc e2 b8 5d 3d dc 14 d8 3d
       -0.07921339 -0.012800372 0.054131396 0.105508536
000190 b1 2e c2 bc f0 51 03 bb 1e 4f f9 bc b5 af 81 3c
       -0.023703905 -0.0020037852 -0.030433234 0.015830854
0001a0 01 1f 7a 3c 69 cc db bb e9 c8 cc bd 1f 9a e9 3c
       0.015266181 -0.006707717 -0.09999258 0.028515873
0001b0 ad 0f 9d 3c de b4 fe bd 8c 28 39 3d 9a b4 4b bd
       0.019172514 -0.124368414 0.045204684 -0.049732782
0001c0 45 ce 1f bd c9 b9 c5 3c e1 9e ad bc 17 6c 9b bd
       -0.039015073 0.02413644 -0.021193923 -0.07588976
0001d0 18 f2 c2 3b 4a f9 50 bd 04 16 c6 bd 07 e2 0e 3d
       0.00594927 -0.05101899 -0.09672168 0.034883525
0001e0 78 43 ac 3d 38 76 96 3d 25 c8 77 3d 03 9c 06 3d
       0.08411306 0.07346767 0.060493607 0.032863628
0001f0 13 01 cd 3c 53 27 2a bd 8e ba 99 3c 91 5b 7c 3c
       0.025024926 -0.04154141 0.018765714 0.0154026905
000200 ad 8f ea 3d 54 81 f0 bd a5 da cd 3c cf 0b a9 bd
       0.11453185 -0.117434174 0.025128672 -0.082542054
000210 23 c5 87 bd 3a 3d 8c bd ae 09 ef bd 2e 26 35 bd
       -0.06629398 -0.068476155 -0.11671768 -0.044225864
000220 ae e4 22 bd 71 32 c3 3c ae f5 af bd 0e c6 40 bd
       -0.039768867 0.023827763 -0.085917816 -0.04706388
000230 a8 58 04 3d e0 7a 89 3c 0d 0c ac 3d 08 99 97 3d
       0.03231111 0.016782224 0.08400736 0.07402235
000240 c4 66 80 3d bf 2f ac bc e7 83 b1 3c 47 21 43 bd
       0.06269601 -0.02101886 0.021669341 -0.047639158
000250 0c 92 05 3e 42 30 01 bb ae 24 51 bc e0 0f cb 3c
       0.13043994 -0.0019712602 -0.012765093 0.024787843
000260 f6 31 64 bc b3 93 dd ba 1a 45 04 3d 28 ab 8d bd
       -0.013927927 -0.001690498 0.032292463 -0.06917411
000270 4a 1c 34 3d 42 50 6f 3b 36 95 94 3d 53 5d 94 bd
       0.04397229 0.0036516343 0.07255022 -0.07244363
000280 4e 25 97 3d 7e 4f fc bc ac f8 00 bd 8a 7c 7b bd
       0.07380162 -0.030799624 -0.031487152 -0.061398067
000290 a2 6b 34 bd ba 76 0c bd ac 43 bc 3c de bb 4e 3d
       -0.04404796 -0.034292914 0.022981487 0.050472133
0002a0 a8 d0 3b bc 12 c4 6e 3d e3 9a 98 3d b2 fc 91 3d
       -0.011463322 0.058292456 0.07451417 0.07128276
0002b0 27 d1 39 3c 73 85 cd 3d 70 5d bf 3d 08 1e fb bb
       0.01134137 0.10035219 0.09343994 -0.007663492
0002c0 4b 9d 03 bc 42 5b 24 3d 54 99 dc bc b0 0d 50 3c
       -0.008033107 0.040126093 -0.026928581 0.012698576
0002d0 85 93 57 3d ca fa 51 3d af 2e 2c bd 9e 67 ab 3c
       0.05263092 0.05126456 -0.04203671 0.020923432
0002e0 4f 52 86 3c 7e 9f c9 bb c1 dc 0c 3d b1 47 89 3c
       0.01639667 -0.006153046 0.034390215 0.016757818
0002f0 96 0f 98 3c f5 aa 76 bd 8a 5e 36 3b 70 d3 36 3d
       0.01856212 -0.06022163 0.0027827346 0.044635236
000300 31 fd ea 3c 96 9a 19 3d a3 d2 c8 bc 5e 2b 38 3a
       0.028685184 0.03750094 -0.024514502 0.0007025505
000310 58 f0 83 3b b4 fd 47 bc 59 8d 12 bd 5c 30 92 bd
       0.004026454 -0.012206484 -0.03577933 -0.0713813
000320 d7 ce a6 3c 80 7f 2f bd e4 05 0a 3d e2 ba fa bc
       0.0203623 -0.042846203 0.033697024 -0.03060669
000330 35 dd 8a bd 70 88 0b bd b9 d6 01 bd ae 7e ce 3c
       -0.06780473 -0.034065664 -0.031698916 0.02520689
000340 d8 c2 0a bd a4 6d 79 3d 1c 04 ed 3c f1 1a da bc
       -0.033877224 0.060895577 0.028932624 -0.026624175
000350 f4 42 1e 3c cd 52 5c bd 06 7a ed 3b 6f cc c2 3d
       0.009659518 -0.053789902 0.0072472123 0.09511649
000360 1c bb af 3d b4 e0 8a 3d c6 13 d0 3b cd 64 f9 3c
       0.0858061 0.0678114 0.0063500134 0.030443573
000370 e0 60 8e 3d f0 35 56 3d 74 7c a8 3d 2a b0 6b 3d
       0.06952071 0.052297533 0.082268625 0.05754105
000380 b6 e1 0e bd 8c 49 b4 3d ec 93 f9 bc 6f 59 d5 3c
       -0.034883223 0.088030905 -0.030466042 0.026043622
000390 8c 7d f7 3b 12 11 9d 3d ca bb 88 3b 44 0e 5b 3d
       0.007552808 0.076692715 0.004172777 0.0534804
0003a0 4d 27 86 bd 43 fb a5 3c 63 fb b9 bc bc 06 21 3d
       -0.06550465 0.020261412 -0.022702878 0.039313063
0003b0 d5 8b 5a bb 60 a4 8c 3c 5b 88 42 bb 04 41 26 bc
       -0.0033347507 0.017168224 -0.0029683325 -0.010147337
0003c0 76 e6 74 3d 2c 28 b7 bd 8e 00 59 3b 17 79 cc bc
       0.059790097 -0.08943209 0.0033111903 -0.024960084
0003d0 06 4e 1c bd 4f 01 9b 3c d2 20 1c 3d 02 0b c5 3c
       -0.038160346 0.018921522 0.038117237 0.0240531
0003e0 82 73 3f bd 8b ae 44 3d 38 c4 84 bd 03 3b 8d bc
       -0.046741016 0.04801802 -0.06482738 -0.017240053
0003f0 52 16 e5 bc 89 24 67 3d b8 ed cc bd ee 9b d5 bd
       -0.027964745 0.056431327 -0.10006279 -0.10430132

fc1.bias f4 [120]
000000 9d 2a a0 3d 1c 63 7d bc e1 9a 85 3d 21 0f 5b bc
       0.07820628 -0.015465524 0.065236814 -0.013370306
000010 a8 62 07 3d 65 3e d6 bc 1c 35 25 bd c7 3e 76 3d
       0.03305307 -0.026152799 -0.040333852 0.060118463
000020 74 db df 3c 2f df 3b bd 41 c1 d3 3d 68 41 f3 3d
       0.027326323 -0.04586714 0.10339595 0.118777096
000030 b1 a3 6b bc 95 41 0e bc 47 07 c4 3d ca c4 05 bd
       -0.014382289 -0.008682628 0.095717005 -0.032658376
000040 85 b4 1e 3d ca 5d 4e 3d 74 3c 4f 3d d0 8d c1 3d
       0.038746376 0.050382413 0.050594762 0.09450877
000050 34 3d 83 3d a6 31 7b bd 39 67 b4 3d ac db 95 3d
       0.06408158 -0.061326645 0.08808751 0.0731729
000060 a5 95 e5 ba c7 a8 f4 bb aa b9 76 3d ef c2 9b 3b
       -0.0017515911 -0.007466409 0.060235657 0.0047534625
000070 7a d4 43 3d d6 75 60 bd 63 61 e9 b9 8c f8 a6 3c
       0.047810055 -0.054799877 -0.00044513782 0.020382188
000080 e9 8f da 3c 45 c6 1f 3d 81 0c 95 bc 71 82 c9 bc
       0.02667995 0.039007444 -0.018194439 -0.024598332
000090 d6 b8 be 3c c4 a9 47 bd a4 44 16 3d 0c ec 67 bd
       0.023281496 -0.048745885 0.036686555 -0.056621596
0000a0 f7 80 53 3d 4a 3e 35 bb cf 07 fc 3d 50 44 c4 3d
       0.051636662 -0.0027655535 0.12306177 0.09583342
0000b0 1e 80 3e 3c 5e 91 99 bc 9a 05 61 ba ad 7d bb 3d
       0.011627225 -0.018746074 -0.00085839035 0.0915483
0000c0 d1 88 ea 3c e5 0e dc 3d 9f 13 ef 3b 52 8b 02 bd
       0.028629692 0.107450284 0.00729604 -0.031871147
0000d0 a2 b1 94 3d dd d4 4a 3d d1 7f f1 3c f1 52 ef 3d
       0.07260443 0.04951941 0.029479893 0.11685742
0000e0 7d 80 18 3d d2 bb 09 bd ed fd 70 bd 31 b2 3f bd
       0.03723191 -0.033626385 -0.058835912 -0.046800796
0000f0 41 f1 75 3d 15 98 cb 3c 2b 38 54 bd e5 8e 4f bb
       0.06004453 0.024852792 -0.05181138 -0.0031670865
000100 fc c6 8b 3d 57 91 9d 3d 95 89 05 bc c7 1f 86 3d
       0.06825063 0.07693737 -0.008150478 0.0654903
000110 62 8e 23 bc 74 06 45 39 12 01 82 3d f3 bf e2 3d
       -0.009982677 0.00018789788 0.063478604 0.11071768
000120 22 bc 9c bd 1a c2 c7 3c 11 8f f3 bb 2d 80 3f 3c
       -0.07653071 0.024384547 -0.0074328263 0.011688274
000130 ac d9 95 3d 74 39 0e bc 3a dd 0b 3d e6 c3 a8 bc
       0.07316908 -0.00868069 0.034146525 -0.020601224
000140 88 3a c0 3d e2 3d 76 3d 9a 09 b1 bc 17 2e f4 3c
       0.09386164 0.06011761 -0.021611024 0.029807134
000150 5e b9 40 3c b4 19 54 3d 8d 21 78 bc 20 68 6b 3c
       0.011762945 0.051782325 -0.015144718 0.014368087
000160 b2 6f 97 3d 12 45 36 bd 42 37 ad 3c da fa 40 bc
       0.07394351 -0.044499464 0.021144513 -0.011778558
000170 1b 0e ec 3d 85 98 d8 bb b9 bf 53 3d a7 4f 0e 3d
       0.11526128 -0.0066099786 0.051696513 0.03474393
000180 6f 0b 96 3d dc d3 ae 3b 2f ed 19 3c da c6 98 bc
       0.073263995 0.005335314 0.009394928 -0.018649507
000190 6b 69 c9 3a 32 2f fe bc 71 04 9d 3c 50 e9 7a 3d
       0.00153665 -0.031028364 0.019167157 0.06125766
0001a0 e7 8d 10 bd 56 7d 18 3b fe 86 7c bd 07 ac 45 3d
       -0.03529158 0.0023268065 -0.061652176 0.04825976
0001b0 f8 78 1e 3d 32 6c 7f 3d 80 f0 7b 3b 88 c6 9c bd
       0.038689584 0.062359042 0.003844291 -0.07655054
0001c0 a0 cb 8a 3d 4e 39 d5 3b b2 5a 91 3c 0f 6a 97 3d
       0.0677712 0.0065070754 0.017743442 0.07393276
0001d0 8f ff e9 bc 32 e8 be 3d 90 4c 27 bd 0e c7 c2 3d
       -0.028564243 0.093216315 -0.0408445 0.09510623

fc2.weight f4 [84, 120]
000000 e3 6a 37 bb e2 14 4b bd e4 d1 ce bd ea 4f 3e bd
       -0.0027987293 -0.049580462 -0.10098627 -0.04646293
000010 7b a0 19 bd ff 14 00 bd 46 a0 8a 3d 6a 0e de 3c
       -0.03750656 -0.031270023 0.06768851 0.027106483
000020 53 dd 7c bd 2e 41 d5 bc 57 ff 41 3d a4 ec 38 3d
       -0.06173451 -0.026032057 0.04736265 0.045147553
000030 b1 b8 42 bd c8 d9 7f bd 60 14 87 3d 43 6a 86 3c
       -0.047539417 -0.06246355 0.06595683 0.016408091
000040 7b 48 d8 3d a2 b4 91 3d 2e 46 bc bd 1c 54 5f 3d
       0.105606996 0.07114531 -0.09193073 0.054523572
000050 b4 c1 89 bd 7f 1f 8a 3d 99 54 c1 bd ef cc 47 3d
       -0.06726399 0.06744289 -0.09439964 0.048779424
000060 ec 01 9e bd 3a fa 45 bd 15 81 b2 3d 56 d2 93 3c
       -0.0771521 -0.048334338 0.08716027 0.018044632
000070 93 9f d8 ba 38 22 88 3d 95 63 88 3d 18 82 83 bd
       -0.0016527049 0.06647152 0.06659619 -0.06421298
000080 8d 3e 98 3d 81 af a0 bd 1d 61 74 bd 76 cf 1d bd
       0.074338056 -0.07845975 -0.059662927 -0.03852793
000090 63 da d4 3c be cb 5c 3d d8 8d 59 bc c6 95 b1 bd
       0.025983041 0.05390524 -0.013278447 -0.08671145
0000a0 78 57 b8 3d 2a 16 29 3d bb 6f a4 bd 6b dd 50 3d
       0.09001058 0.041280903 -0.080291234 0.05099241
0000b0 db a3 ef bc bc 42 7e bb 54 5d fc bc 25 ea 3b bd
       -0.029252937 -0.00387971 -0.030806221 -0.045877595
0000c0 1c 2a ce bc f9 e9 5a 3d 10 0d 96 bc a6 9f 98 bd
       -0.025166564 0.05344579 -0.018316776 -0.074523255
0000d0 f1 98 82 3d 9e 45 6f 3c dd 17 67 bd 52 7e b6 bb
       0.063768275 0.014604 -0.056419242 -0.005569258
0000e0 02 a3 aa 3d fd 1d 4c 3d a3 3e 32 bc 07 28 35 bc
       0.083318725 0.049833287 -0.010879192 -0.011056907
0000f0 e5 86 5d 3d a4 e5 2c bd f2 5e 69 bd 94 a9 df bc
       0.054083724 -0.04221119 -0.056975313 -0.02730254
000100 74 0d b2 bd fc 6b 5e 3d ab ba 4e 3d 88 8f b0 bd
       -0.08693972 0.0543022 0.05047099 -0.086211264
000110 05 aa 8f bd aa 48 bf 3c 75 10 8e 3b d6 22 5c bd
       -0.070148505 0.023350079 0.004335458 -0.05374416
000120 56 49 61 3d 20 2a 9f 3d f6 45 37 3d ad ce 87 3c
       0.05500158 0.077717066 0.044744454 0.016578043
000130 59 9b 4a bb 0f ae 51 3d 99 f8 95 bd 93 d8 fb bb
       -0.0030915348 0.051191386 -0.07322807 -0.00768573
000140 3b ce 6f 3d a3 db 74 bb 74 51 4f bd 87 64 2b 3d
       0.058546286 -0.003736236 -0.05061479 0.041843917
000150 c9 8d 10 3c dd e6 ca 3c c1 e9 cf 3c 0d 66 c5 bc
       0.008822867 0.024768287 0.025380017 -0.024096513
000160 47 68 a4 bb 9e 59 4f bc 50 ee d2 3d 0a f9 89 b9
       -0.0050173136 -0.012655644 0.10299361 -0.00026316225
000170 7d be 9e bc db a5 f9 3c e9 a3 1b bd 39 db 03 bd
       -0.019377941 0.030474594 -0.037998114 -0.03219149
000180 f0 9b 43 bd 4f 50 3b 3d 7d 83 a8 bd 98 6c de 3c
       -0.047756135 0.045730885 -0.082282044 0.02715139
000190 2f 55 d1 bd bb 56 24 bd ed 4b 8d bd 9e da bd bd
       -0.102213256 -0.040121775 -0.06899247 -0.092702135
0001a0 41 aa bb bc 26 51 18 3d 53 a7 24 3d 1a 4f d2 3d
       -0.022908332 0.037186764 0.040198635 0.10268994
0001b0 dd 55 dc 3c 97 45 9e 3d 46 8e 91 bd 1a 8d 53 3c
       0.026896412 0.07728117 -0.07107215 0.012912059
0001c0 dc a6 2e 3d cf a0 27 bd a7 e2 e6 bc e4 19 9d bd
       0.0426396 -0.040924843 -0.028184248 -0.07670954
0001d0 af 73 62 bd 97 84 22 bd 84 f7 28 bd 6d 2e 45 3c
       -0.055286106 -0.03967723 -0.041251674 0.012034995
0001e0 3e e1 ea 3c 17 dd 35 bd 45 19 bc bd ce 4f a5 bd
       0.028671857 -0.0444003 -0.09184507 -0.08071862
0001f0 14 ed 9b bd 9e b3 94 bc be 78 fd 3c 87 8b a8 bc
       -0.076135784 -0.018152054 0.030941363 -0.020574344
000200 6d ec a4 3c 74 ae 9c 3d 21 2c 9b 3d 14 af 4b bd
       0.020132268 0.07650462 0.07576776 -0.049727514
000210 f7 43 02 bd d0 f1 85 bd 08 46 f4 bc 62 48 a9 3c
       -0.031803098 -0.06540263 -0.02981855 0.020664398
000220 55 d5 8e 3d 64 a1 0f bc d8 8c a9 3d 8c 54 03 3d
       0.069742836 -0.008766506 0.08278817 0.032063052
000230 02 70 8a bd c0 4a 3e 3d 72 c6 98 bc 01 1f ac 3d
       -0.06759645 0.046458006 -0.018649314 0.08404351
000240 73 eb 9b 3d b9 58 b5 3d 63 58 a2 bd e5 a0 71 3d
       0.07613268 0.08854813 -0.07927015 0.05899133
000250 1c 87 30 bd 6b 7d 5e 3d bf e7 5a bd d4 ee 9a 3d
       -0.0430976 0.054318827 -0.053443667 0.07565084
000260 41 3d bd 3b cf 85 6b 3d 21 5d af 3d 77 46 0c 3b
       0.0057751243 0.057500657 0.08562685 0.0021404305
000270 b2 e9 86 b9 85 1a 2e 3d b0 44 16 3d b5 02 6f bd
       -0.00025732588 0.04250576 0.0366866 -0.05835219
000280 95 c5 5f 3b 84 1e 38 bd a9 ed ea bc b4 0c 81 3c
       0.0034144868 -0.044950977 -0.028677778 0.015753128
000290 4b dc 35 3d 48 75 5a bc d8 68 81 bc 04 ad c6 3c
       0.04439954 -0.013333626 -0.015797064 0.024252422
0002a0 4b 45 12 bd e6 20 bc bd cc 1d 86 3d 73 b4 55 bd
       -0.035710614 -0.091859624 0.06548652 -0.052174043
0002b0 0f e3 eb bb fc 1c 87 3c 27 f3 36 bd 68 5d 2b bc
       -0.0071986984 0.016493313 -0.044665482 -0.0104592815
0002c0 3b 16 90 bd e4 22 03 bd 04 00 5a bd 7c 35 8b 3d
       -0.0703549 -0.032015696 -0.05322267 0.06797311
0002d0 6a 91 99 bd fc 67 8c 3d 31 f8 2a bc 49 e7 4d bd
       -0.07498439 0.06855771 -0.01043515 -0.0502694
0002e0 9e dc 12 3d a3 19 75 3d a8 60 b6 bd e8 44 98 bd
       0.03585493 0.059838902 -0.089051545 -0.07435018
0002f0 a2 99 a7 3d d2 e4 2b 3c ee 78 a7 3d 8f d2 f0 bc
       0.081836 0.010491567 0.081773624 -0.029397277
000300 e1 14 67 bd 4a cc b7 3c 1a 62 63 bd ee 9b 9e bd
       -0.056416396 0.02243628 -0.05551348 -0.07744585
000310 0a 07 3c bd 27 fe ba bd 32 f1 20 bd ca c0 08 3c
       -0.04590515 -0.09130507 -0.03929252 0.008346746
000320 25 67 ac bd b0 e7 95 3d 99 5a a3 3d 2a 92 76 bd
       -0.08418111 0.073195815 0.079762645 -0.060197987
000330 c7 d3 79 bd 98 2b 88 3d be 19 4d bd 3b d5 02 3d
       -0.060992982 0.0664894 -0.050073378 0.031941634
000340 77 53 10 bc 7e 1f 90 bd 19 1c dd bc 72 63 8a bc
       -0.008808962 -0.07037257 -0.026990937 -0.016893122
000350 3c 47 b8 bd d3 2b 8b bc c5 00 8a bc c4 20 8e 3d
       -0.08997962 -0.01698867 -0.01684607 0.06939843
000360 81 04 e1 3c 1c c7 be bd 41 11 8d 3d 7c fb a0 3d
       0.027467968 -0.09315321 0.068880565 0.07860467
000370 76 a5 1c bd ae a6 c0 bc d0 cf 3c 3d 87 68 20 3c
       -0.038243733 -0.023516979 0.046096623 0.009790546
000380 4f b0 81 bd 6d 73 98 3d 07 35 a3 bd 8f 69 03 3d
       -0.06332456 0.07443891 -0.079690985 0.03208309
000390 2f 0a 17 bd 10 df 68 bd 7f 41 54 bd 7e 00 21 bd
       -0.036874946 -0.056853354 -0.051820274 -0.03930711
0003a0 22 06 a4 3d 31 de 87 3d 45 14 56 bc c5 fb e6 bc
       0.08008982 0.066341765 -0.013066356 -0.028196225
0003b0 e6 a3 55 bd ba 7c 44 bc e0 6d 4f 3d 5a b5 ca bc
       -0.05215826 -0.011992628 0.050641894 -0.024744678
0003c0 e9 19 df bd 18 f6 02 3c 1b 3b 04 3d 7b c3 0d 3c
       -0.10893614 0.007993244 0.03228293 0.008652563
0003d0 7d 07 b6 bd 69 e8 5d 3d 18 8b 98 bb 6e 8f 55 3d
       -0.08888147 0.05417672 -0.004655253 0.05213874
0003e0 94 4c c1 bc 05 a0 47 3d 64 a4 62 3d d5 1c ea bd
       -0.023596086 0.04873659 0.055332556 -0.114312805
0003f0 da 6d 6b 3d 44 43 a1 bc 18 51 b7 bd b1 45 fa 3c
       0.05747781 -0.019685395 -0.08951014 0.03055081

fc2.bias f4 [84]
000000 83 35 3e bc b5 f4 48 3a 4c 0e 0b 3e 51 5d e4 3b
       -0.011609438 0.0007665859 0.13579673 0.006969132
000010 e2 44 0e bc 30 f4 e5 3d f9 7f 26 3e 68 f8 a1 bc
       -0.008683415 0.11228216 0.16259755 -0.01977177
000020 af cc eb 3d 2e 61 18 3d a4 63 14 3e 25 50 2f 3e
       0.1151365 0.037202053 0.14491135 0.17120416
000030 3a 05 e3 3c e4 39 24 3d 29 e2 57 bd 32 90 87 3d
       0.027712453 0.04009427 -0.052705918 0.066193
000040 10 af 3b 3d d0 af 6f 3e b6 2f b3 3d ca 0b 28 3e
       0.04582125 0.23406911 0.087493345 0.16410747
000050 65 1a da 3d 04 6c 8b 3d 6a 89 10 3e d1 e9 bc bd
       0.106495656 0.06807712 0.1411492 -0.092242844
000060 62 14 54 3e 3e 3a 34 3d e3 4f 17 3d 96 ef ff bc
       0.207109 0.044000857 0.03694142 -0.031242173
000070 62 ba 80 3d 48 61 35 bd 92 e3 30 3a 14 1b 21 3e
       0.0628555 -0.044282228 0.0006747778 0.15732986
000080 c2 d4 ab 3b 89 ca 3c bd 85 c9 58 3e 80 29 e1 bd
       0.0052438686 -0.04609159 0.21170624 -0.109942436
000090 3e be c5 3b d4 94 8a bc 5e 9e 17 3e 03 66 0e 3d
       0.0060346415 -0.01691667 0.14806506 0.034765255
0000a0 ee 9b 9e bd 3f f3 b7 3c ec f5 96 3c 82 77 20 bd
       -0.07744585 0.022454856 0.018427812 -0.03917647
0000b0 b3 04 2e 3e 8c a6 a0 bc 8d 3c 36 bd e0 04 1e 3e
       0.1699398 -0.019610666 -0.04449134 0.15431547
0000c0 d6 96 c4 bd 6c b5 71 3d e5 64 fe 3d 2e d4 04 3d
       -0.09599082 0.059010908 0.12421588 0.032428913
0000d0 44 15 99 bc 6c f6 b7 bc ce d9 51 3e 93 db f2 3c
       -0.018686898 -0.02245637 0.20493242 0.029645717
0000e0 0a d4 2c bd 8c ee 53 3e f5 fd 16 bd bf 28 a5 bd
       -0.042194404 0.20696467 -0.036863286 -0.08064412
0000f0 ed 93 d7 3d 48 33 26 3e db ac 56 3e 4c ca 0d 3e
       0.105262615 0.162305 0.20964377 0.13846701
000100 9d e6 3c 3d 12 fd b7 bd 0e 78 47 bc 67 25 8f 3c
       0.046118367 -0.08983816 -0.012174619 0.01747389
000110 69 71 9c 3c fa 2f b6 bd 86 1c 38 3d ca 1d 27 3c
       0.019097047 -0.088958696 0.044949077 0.010199973
000120 3a b2 84 3d 4a 86 27 bc 3a e7 09 3e 99 28 f3 3d
       0.064793065 -0.010224888 0.13467112 0.11872978
000130 24 22 61 3d c3 a3 48 bd e6 32 25 3e 50 89 1f bc
       0.0549642 -0.0489843 0.16132697 -0.009737328
000140 b9 68 2d bd f8 22 6a 3d 28 15 27 3e 3e 39 8f 3d
       -0.0423362 0.057162255 0.16316664 0.0699334

fc3.weight f4 [4, 84]
000000 62 2a b2 3c 83 76 03 bc 25 58 37 3d c4 03 45 bd
       0.021748725 -0.008023861 0.044761796 -0.048099294
000010 51 c8 28 3d d8 88 c8 3c 9b 1e 58 3d 3a a4 71 bd
       0.04120666 0.024479315 0.052763563 -0.05899451
000020 c0 9b 20 3d 96 71 1b bd 69 21 8c be e6 db 30 be
       0.039211035 -0.03795012 -0.2736924 -0.17271385
000030 1b c0 ff bd 9b f0 09 be 33 8b c1 bc 1e a1 1d be
       -0.12487813 -0.1347069 -0.023625946 -0.15393493
000040 48 11 55 3d c4 b9 db be 2d aa 86 3d 29 48 ec bd
       0.052018434 -0.42915165 0.06575427 -0.11537201
000050 65 be 1b 3c 17 0c ab 3d 23 cc ef bd bf ac b1 bd
       0.009505843 0.08351915 -0.11708858 -0.08675527
000060 32 69 ae be 2b ea b2 3c f5 89 e9 3c ec 51 57 bd
       -0.34064633 0.021840176 0.028508166 -0.05256836
000070 99 3c 2d be c5 ed 89 3d fe 75 61 3d 31 93 db be
       -0.16917647 0.06734804 0.055044167 -0.42885736
000080 14 ba 6d bd 15 e9 21 bd a5 b8 46 be 2e 9c 99 3d
       -0.058038786 -0.039528925 -0.19406374 0.07500492
000090 9c 48 4c 3d ee 40 b4 bc cc 98 72 be 9f b2 19 bd
       0.049873933 -0.022003617 -0.236911 -0.037523862
0000a0 55 42 b6 3c fe 25 d2 bd 9d 93 c4 bd ce be 86 3c
       0.022248426 -0.10261153 -0.095984675 0.016448405
0000b0 b3 33 21 bd 1d cf 41 3c fa dc b7 3d 31 ee 0e be
       -0.039355945 0.011829165 0.08977695 -0.1395805
0000c0 31 2e e9 bd 4f a5 94 3d cd db 90 bc 60 34 af 3d
       -0.113857634 0.072580926 -0.017682934 0.085549116
0000d0 21 03 b4 bc 7e 27 2e 3d d6 61 90 be 5b 4c 26 3d
       -0.021974148 0.04251813 -0.28199643 0.040600162
0000e0 97 55 ee bd 5a bf ea be e2 ba 21 bd b9 3d c6 3d
       -0.11637419 -0.45849115 -0.039484866 0.096797414
0000f0 86 3b 11 be 9a b5 a2 be ec d8 99 3d 5f 7c a4 be
       -0.14182863 -0.31779176 0.07512078 -0.32126138
000100 f3 76 09 bc 22 d1 79 bd db 53 16 bd 6f 7e a9 bd
       -0.008390176 -0.06099046 -0.036701065 -0.082760684
000110 38 86 01 3d 23 6c 17 bd 4e cb 12 be 6e 6f 24 bd
       0.03162214 -0.03696836 -0.14335367 -0.04014533
000120 dd 3d 19 be 78 fb af 3d 57 fb 41 3d ba a7 97 bd
       -0.14965005 0.08592886 0.047358837 -0.07405038
000130 7a 54 86 bd 86 d2 ae 3c db 42 42 be 5b 88 38 bc
       -0.065590814 0.02134062 -0.18970816 -0.011262978
000140 ca 0a a4 ba ce 5b 3b ba af d7 91 be 6e f8 22 be
       -0.0012515422 -0.0007147164 -0.28484866 -0.15915081
000150 8a 41 ea 3d f3 d1 9e bc 4c 8e 23 3e f5 6d 9a bd
       0.11438282 -0.019387221 0.1597225 -0.07540504
000160 37 03 ec 3c ed 4c 89 3d d8 57 81 3e e7 6a 18 bd
       0.028810127 0.067041256 0.25262332 -0.037211325
000170 e7 19 99 3d 14 4b ad 3c 38 09 8e 3e 0e 83 d7 3e
       0.074756436 0.021153964 0.27741408 0.42092174
000180 15 8d 8b 3d 4c 9e eb bc 3f 8a 8b bd 12 bd d0 3d
       0.06814019 -0.028762005 -0.06813478 0.10192312
000190 06 db bf bd 70 29 c9 3e 97 87 97 bd 8d 32 a9 3e
       -0.09367947 0.39289427 -0.073989086 0.3304638
0001a0 96 89 91 3d 0d 82 46 3e 56 7d 69 3e a6 62 ad bd
       0.071063206 0.19385548 0.22801718 -0.08466081
0001b0 8d 80 40 3e a5 a3 67 bc 9d f9 fb bd 82 7b 2e 3d
       0.18799038 -0.014138137 -0.12303469 0.042598255
0001c0 fd a9 9c 3e c0 59 a5 bd c7 96 ce 3d a4 f9 0b 3f
       0.3059844 -0.08073759 0.10087352 0.54677796
0001d0 35 c1 b9 3d 1a 4a 78 3b 60 bf a8 3e df 5f 33 3d
       0.090700544 0.0037885965 0.32958508 0.0437926
0001e0 a9 99 02 bd f7 2e 51 bc 0b 4a aa 3e d8 3d f1 bd
       -0.031884823 -0.012767545 0.33259615 -0.11779374
0001f0 fb 27 70 3d f6 5e b1 3d 83 e1 3f bd 0a b1 55 bd
       0.05863188 0.086606905 -0.046845924 -0.05217079
000200 69 71 14 3d 79 69 b8 bd 6c bc 5d 3d bd 71 8a 3d
       0.03624097 -0.09004492 0.05413477 0.06759975
000210 ab 9d 11 bd a3 ac 63 3c 1a a3 a0 bc 6d 4e b8 3b
       -0.035550755 0.01389614 -0.019609023 0.0056245835
000220 93 3e 3b 3d 6e 23 b7 bd 1b 21 97 3d 5a 58 f3 3d
       0.045713972 -0.089423046 0.07379361 0.11882086
000230 4c b5 bf bd fb 2c e1 3e a8 5b 7f 3d 5e c2 61 bd
       -0.093607515 0.4397963 0.06234327 -0.055117004
000240 f2 d1 32 3e 09 ef 8b 3e 2d 79 02 be 71 c1 f3 3d
       0.174629 0.27330807 -0.12741537 0.119021304
000250 d0 4e 85 3d 59 c8 ce 3d e3 08 13 bd b9 94 83 bd
       0.06509173 0.10096807 -0.035897147 -0.06424851
000260 36 d0 2c 3e 05 4f c5 3c 8f 1f 42 3e 8c 4e 8c 3d
       0.16876301 0.024085531 0.18957351 0.06850919
000270 dc 07 8d 3d 0a 89 a7 bb 12 34 48 bb 54 4c 57 bc
       0.06886265 -0.005112772 -0.0030548614 -0.013140757
000280 9f 83 5f 3e 5a 51 35 bc 9f 71 10 3e 71 26 2c bd
       0.21827553 -0.011066759 0.14105843 -0.042028848
000290 d6 23 be 3d ea 57 1a 3d a2 d5 9e 3e 27 d8 7a 3e
       0.09284179 0.037681498 0.31022364 0.24496518
0002a0 c9 c3 c2 bd 27 a5 e0 bb 25 b0 9c bd 52 17 b1 bd
       -0.09509999 -0.006855625 -0.076507844 -0.08647026
0002b0 15 d4 c3 bb 83 fa 96 bd 33 51 c4 bd 5a 57 5f bd
       -0.00597621 -0.07372 -0.095858 -0.054526664
0002c0 14 68 53 3e 20 c7 84 bd 8c 9e b7 3d 18 e8 7f 3e
       0.20645171 -0.064832926 0.08965787 0.2499088
0002d0 c2 46 d8 3c ca 0d 56 3e ae 9c d0 bd c5 c0 3b 3e
       0.026400927 0.20903698 -0.10186134 0.18335254
0002e0 5f 74 c1 3d 96 8f c0 3e a8 e6 bc 3b 6a e1 1c be
       0.09446024 0.37609547 0.005764801 -0.15320364
0002f0 06 8e 5f 3e 32 de 08 be c1 fd 67 3e 8e f5 cc 3d
       0.21831521 -0.13366011 0.22655393 0.10007773
000300 43 03 05 3f 29 62 9e bd c9 75 81 3d 98 4b 44 bd
       0.519581 -0.07733566 0.06321294 -0.047923654
000310 85 08 ad 3d 49 3d 9f bc d6 90 39 bd 12 3f 86 3e
       0.084488906 -0.019438403 -0.045304142 0.26219994
000320 08 52 60 3d 80 2b f3 3c b9 f3 98 bd 6b 62 a6 bd
       0.05476573 0.029683828 -0.074683614 -0.081242405
000330 cd 2d 9d bc 86 5a ae 3d 3e 69 e6 3e 40 72 93 bc
       -0.019186879 0.0851336 0.45002168 -0.017998815
000340 ef c4 ea bb 7c d0 d3 3b c4 6f b9 bc e7 e4 5f 3d
       -0.0071645896 0.0064640623 -0.022636302 0.054661658
000350 d8 d0 99 3e 32 f4 b6 bd 76 09 a1 bc bd b4 93 3e
       0.30042148 -0.08933295 -0.019657832 0.2884883
000360 0d 27 3f bd c3 3b 24 3d 10 02 63 3e b9 0b 9d 3d
       -0.0466681 0.040096056 0.22168756 0.076682515
000370 7c e3 ba bd 8e 5c 66 3d f9 2e ce 3e f6 9b d6 bd
       -0.091254205 0.05624061 0.40270212 -0.10478966
000380 72 6d a7 3d 38 d9 85 3e 39 f0 a7 bd b1 e3 5f bd
       0.08175172 0.26142287 -0.08200116 -0.054660503
000390 f6 8f a4 3e e4 59 c3 3e 30 b9 41 3e e9 28 a5 3e
       0.32141083 0.3815452 0.189183 0.32257774
0003a0 bf df 59 3d 16 99 a5 3b 64 80 20 3d f7 50 4f bd
       0.053191897 0.0050536497 0.039184943 -0.050614323
0003b0 c5 63 58 bd c8 e6 a7 bd cd c7 a1 3c d3 d2 5e bd
       -0.052829523 -0.08198315 0.019748593 -0.054400276
0003c0 54 08 1c 3e 0d 8e ce 3d c0 91 0f bd 93 15 34 3e
       0.15237552 0.10085688 -0.035051107 0.17586355
0003d0 ca 6c 10 3d 16 08 2c bd 27 ba 01 3e e7 45 7b 3c
       0.03526 -0.0419999 0.12668668 0.01533649
0003e0 07 3b cb 3c ca 1f 47 3e 71 aa 97 3e 21 d6 d8 3d
       0.02480842 0.1944572 0.29622224 0.10587717
0003f0 2e 13 29 3d c1 b7 ae 3d 52 54 50 bd 91 95 75 3d
       0.041278057 0.08531142 -0.050861664 0.05995709

fc3.bias f4 [4]
000000 a6 35 b0 bd e7 5f 9d 3e e9 40 21 3f 17 d9 58 bf
       -0.086039826 0.3073723 0.6298967 -0.8470625
